Voice_Evaluation_PRJ3/voice_model.pt (torch, 572039 bytes, 10 tensors)

lstm.weight_ih_l0 f4 [512, 8]
000000 ae bc c5 bd 4e 2e 73 3d dd 1f f3 bb 53 81 8f bd
       -0.096551284 0.05937033 -0.00741957 -0.070070885
000010 bd 9f 55 3d 88 09 83 3d 9d 7c 9c 3d d8 44 b0 bd
       0.05215429 0.06398302 0.076409556 -0.08606881
000020 95 73 71 3b 31 68 8f 3d f4 b0 f0 3c 45 b6 a7 3d
       0.0036842574 0.07002295 0.029381253 0.08189062
000030 7d 87 80 3d 3c b3 58 bd 0f 2e 68 3d fb ee c0 bc
       0.06275842 -0.052905306 0.05668455 -0.023551455
000040 53 dd be 3d f4 a0 aa 3d 0b 59 14 bd f0 d4 80 3d
       0.09319558 0.083314806 -0.03621773 0.062906146
000050 3c 34 c7 bd 6d 7d 9d 3d 8b 94 bf 3d 99 c9 87 3d
       -0.0972676 0.07689939 0.09354504 0.066302486
000060 fb c6 9a bd 59 aa ea 3c 0b 70 ec 3b 77 b3 b7 bd
       -0.07557484 0.028645681 0.007215505 -0.08969777
000070 81 6c b2 3c 2a 8f 63 3d d9 2a 11 3c 39 30 af 3d
       0.021780254 0.055556454 0.008860313 0.085541196
000080 b2 08 12 bd ac fd 90 bd 9c ef ab bc ac 14 ae bd
       -0.035652824 -0.07079634 -0.020988278 -0.085000366
000090 84 43 86 bd 2f 14 a0 3d 00 12 c9 bc b7 41 82 3d
       -0.06555846 0.0781635 -0.024544716 0.0636019
0000a0 81 aa 2c 3c 99 90 79 3d 8e c2 1e 3d 6c c6 0a 3c
       0.010538698 0.060928915 0.03875976 0.008470159
0000b0 1b 82 89 3d a5 05 70 bd ed 0d f4 bc 85 e4 66 bd
       0.06714269 -0.058599133 -0.029791797 -0.056370277
0000c0 e2 3b 27 bc 2c 79 94 3c c3 86 b1 bd 08 f7 4f bd
       -0.010207148 0.018124186 -0.08668282 -0.050772697
0000d0 d1 02 2d 3d 8f db a7 3d 99 5b db bc 47 b6 53 3d
       0.042239014 0.08196174 -0.026777076 0.051687505
0000e0 db 3e 97 3d 0e 9f 3d bd 53 4b 3b 3d a4 b2 97 3b
       0.073850356 -0.046294264 0.04572613 0.00462945
0000f0 16 fb 82 3d dc ab 7b bd 5c ba 12 3c 8c fb 88 3d
       0.06395547 -0.061443195 0.008955564 0.06688604
000100 cb b7 c5 bc 84 e3 c6 bc c9 38 64 bd 82 94 90 bd
       -0.02413549 -0.02427841 -0.055718217 -0.070595756
000110 1e 9a 6a 3d 83 d5 80 3d ff a2 b2 bd 5a 3c 6b bc
       0.057275884 0.06290724 -0.08722495 -0.014357651
000120 2e ce 0f bb 92 f3 58 bd f2 d8 06 3d 74 d3 1d 3d
       -0.002194296 -0.05296666 0.03292174 0.038531736
000130 22 dd a0 3b 68 8f 16 bb 93 fe ae bd 1c 6e 53 bd
       0.0049091736 -0.002297366 -0.0854465 -0.05161868
000140 16 ac 5a bd 4d 29 b4 3d dd cf 5e 3c 30 9b a6 3d
       -0.05338677 0.0879694 0.013599363 0.081350684
000150 03 48 92 3c c4 0b a3 bd 3f db 2f 3d 0d ed 07 bd
       0.017856603 -0.079612285 0.0429337 -0.033185054
000160 2e 44 60 3b c0 a9 0e bb 16 ae 22 bd 21 8f 2e bd
       0.0034220326 -0.002176866 -0.039716803 -0.042616967
000170 91 74 5a 3c 1a aa 8e bd bf ba 14 3d af 45 a6 3d
       0.013333456 -0.06966038 0.036310907 0.0811876
000180 ce 8e 7f bd c2 db a3 bd df bf 64 3d ea 44 a7 3d
       -0.06239205 -0.080009 0.055847045 0.08167441
000190 55 d5 26 bd f3 ba 9d 3d c0 8b 4a bd 0b 3e 8f 3a
       -0.040730793 0.07701673 -0.049449682 0.0010928524
0001a0 b0 a3 93 3d 18 bd 72 bd ed 07 bf bd b7 da b6 ba
       0.07208955 -0.059262365 -0.093276836 -0.001395068
0001b0 33 73 b1 bc 0f 1f d3 bc 93 5a 87 3d 33 7f 41 3d
       -0.021661377 -0.025771646 0.066090725 0.047240447
0001c0 cf 80 36 bd 22 ef 7d bd 25 f1 af 3d a7 ef f3 3c
       -0.044556435 -0.061995633 0.085909165 0.029777361
0001d0 4d 07 a6 3d 20 6c 98 bd 6b 52 4f ba 8c f4 b3 bd
       0.08106861 -0.07442498 -0.00079087046 -0.08786878
0001e0 22 51 2c bd fd d4 01 bd 72 11 ae 3c d0 c4 ba 3c
       -0.04206956 -0.031697262 0.021248553 0.022798926
0001f0 0f 88 a3 bd 58 a7 8f 3d 54 81 23 3d 0f ef 27 bc
       -0.079849355 0.0701434 0.03991826 -0.010249867
000200 35 ec 03 3d 28 8b 91 3c 58 c8 62 bd 0a f4 06 bd
       0.032207686 0.01776655 -0.055366844 -0.032947578
000210 41 fa 9a 3d 70 74 9c 3c e9 e3 63 3d bd 1b 50 bc
       0.075672634 0.01909849 0.055637274 -0.012701926
000220 08 55 8c 3d 28 97 72 3c f0 e3 a8 3c 71 0b 59 3d
       0.06852156 0.014806546 0.020616502 0.052989427
000230 fe ef 8a bc 2d 4d 4c 3d bc 1e 0e bd b8 a0 5d bd
       -0.01696014 0.049878288 -0.03469728 -0.05410835
000240 02 ba 09 bd e9 28 84 3d e6 aa f4 bc 6e e1 a4 3d
       -0.033624656 0.064531155 -0.029866647 0.0805081
000250 68 e0 22 bd db c0 e7 bc cc 7f db bb 8a fa 0b 3b
       -0.03976479 -0.028290203 -0.006698584 0.002135905
000260 f1 e8 d5 bb f2 82 aa bc f9 bd 94 3d 62 e3 1f bd
       -0.006528013 -0.020814393 0.07262797 -0.03903521
000270 ec ff 4c bd 74 59 5a bd 76 60 9a 3d 7d f6 92 bd
       -0.050048754 -0.053307965 0.0753793 -0.0717592
000280 8f 0f ac 3c 07 96 26 bd a2 7b 05 bd 3f 17 4b bd
       0.021003513 -0.04067042 -0.03258861 -0.049582716
000290 7a 34 90 bd 5e 2e ab bd 08 22 8b bd e9 35 a2 3d
       -0.07041259 -0.08358453 -0.067936 0.07920439
0002a0 ba ae 30 3d d8 1a 90 bd cc fb 92 3c df ad 68 3d
       0.043135382 -0.0703637 0.017942332 0.05680644
0002b0 a0 d8 a2 bd bf f1 b2 bd 86 83 7f 3d fa ac 2f bd
       -0.07951474 -0.08737516 0.06238129 -0.042889573
0002c0 37 9d 7f bd 90 21 97 3d 5c 34 8d bd d0 a6 d4 3c
       -0.06240579 0.073794484 -0.068947524 0.025958449
0002d0 41 18 25 bd 9a e5 98 3d 87 c5 20 3d b0 2a 67 3c
       -0.040306333 0.07465668 0.039250877 0.014109299
0002e0 d8 72 4f 3d 38 e1 98 3d f9 e6 ad 3d 77 74 23 bc
       0.050646633 0.07464832 0.0849132 -0.009976498
0002f0 5d 6f 55 3d 40 63 22 bd ae 26 11 3d 0a 76 83 3d
       0.052108157 -0.039645433 0.03543728 0.064189985
000300 15 6b 90 bd 07 d4 8c bd a5 b6 28 bd 9b 6a 24 bd
       -0.07051674 -0.068763785 -0.04118981 -0.04014073
000310 57 96 e0 bc 97 c2 47 bd ef 7b 5d 3d 9e 1f c9 bd
       -0.027415438 -0.04876956 0.05407327 -0.098204836
000320 80 d9 11 bd 22 21 74 3d 08 ae 8b 3d 08 ec a5 bd
       -0.035607815 0.05960191 0.06820303 -0.0810166
000330 40 2d 37 bd d0 58 61 3d d6 b1 a1 3d 78 ea 83 bd
       -0.04472089 0.05501634 0.07895248 -0.06441206
000340 87 11 01 3d 95 8f 83 3d 14 a5 49 bd 78 a1 a2 bd
       0.031510856 0.064238705 -0.049229696 -0.07940954
000350 c2 28 81 3d a5 20 87 3d e3 67 a2 3d c0 0b 83 bd
       0.06306602 0.06598023 0.07929971 -0.063987255
000360 43 d5 1b 3d 7f 7f c7 3c 17 76 66 3d ab ff 9f bc
       0.03804518 0.024352787 0.056264963 -0.019531092
000370 b0 fe cd 3c 18 a3 d1 bb 4a 0e 07 bd 8d 3d a7 bd
       0.025145859 -0.006397616 -0.03297261 -0.08166037
000380 3e b2 eb bc 4c 8b 66 bd 46 a5 ae 3d 31 17 c0 3c
       -0.028771516 -0.056285188 0.08527617 0.023448559
000390 20 e4 68 3d 2b b5 34 bd b7 b4 fe 3c d7 cc 7a 3d
       0.056858182 -0.044118088 0.03109203 0.061230507
0003a0 ba 16 a5 3c 02 55 a9 bd 3b 70 2a 3d 47 e7 a5 3b
       0.020152438 -0.08268167 0.041610938 0.005062971
0003b0 75 11 5e bd 51 5e 84 bd 87 20 40 3d c4 55 ef bc
       -0.054215867 -0.06463302 0.04690602 -0.0292157
0003c0 80 71 72 bb 28 49 ba 3d fb 1f 78 3c 7f 58 38 bd
       -0.003699392 0.09095985 0.0151443435 -0.04500627
0003d0 1a a7 be bd 80 3b 19 bd ec 4b 73 bd 4c 27 da 3d
       -0.09309216 -0.03741026 -0.059398577 0.106520265
0003e0 d9 35 96 bc 3f ce 53 bd f2 95 e2 ba 85 76 65 3d
       -0.018336223 -0.051710363 -0.0017287119 0.056021232
0003f0 3f d0 0b 3d 1f ff 88 3c 1d 5b c1 b9 e8 0b 44 bd
       0.034134146 0.016723214 -0.00036879713 -0.047862917

lstm.weight_hh_l0 f4 [512, 128]
000000 81 64 8d 3d 9c 5b 1b bd be 7d 61 bd 30 54 aa bd
       0.06903935 -0.037929162 -0.055051558 -0.08316839
000010 5d 80 de bc d5 ed 9b bd 45 30 93 3d e5 ef 93 3d
       -0.027160818 -0.07613722 0.07186941 0.072234906
000020 f0 b5 81 bd bc e9 83 3d a1 dd c5 3c 08 44 bb 3d
       -0.0633353 0.06441066 0.024153532 0.09143835
000030 ad c6 8f 3d 4c 6b 21 bd b9 c9 95 bd 3c 10 3b 3d
       0.07020316 -0.039408967 -0.07313866 0.04566978
000040 73 6b 85 bd e1 a7 f2 bc c7 dd 49 3d fa d8 6e bc
       -0.06514635 -0.029621067 0.04928377 -0.014578098
000050 dc 63 0f 3d 85 a4 fe bc fa c8 c5 bd 67 23 79 3d
       0.035007343 -0.031084308 -0.09657474 0.060824778
000060 95 a2 56 bd 0a be 90 bd c7 0b 7e bd 6a ed c4 bc
       -0.052401144 -0.07067497 -0.06202295 -0.02403899
000070 55 ba 9e 3d ee 07 4a 3d a1 48 a9 bd 28 76 a1 bd
       0.07750384 0.04932397 -0.08265806 -0.07883865
000080 db 9a 2d bd 36 b6 62 bd 12 3b 42 bd d2 16 fa bc
       -0.04238401 -0.05534955 -0.047419615 -0.03052846
000090 f0 7f dc 3c f0 e1 22 3d 09 62 5d 3d dd 11 22 bc
       0.026916474 0.039766252 0.05404857 -0.009891954
0000a0 e6 54 ce 3c 57 8b db bd 1f 7a 19 bd 01 2f ab 3d
       0.025186967 -0.10719936 -0.03746998 0.08358575
0000b0 77 51 cb 3d f6 a8 44 bc 97 19 b8 3d a9 bc 60 bd
       0.099276476 -0.012003174 0.08989256 -0.05486742
0000c0 9b b6 d8 3c a9 93 71 3d 2d 2e d0 bd 6d cc 68 3c
       0.02645426 0.05897871 -0.10165057 0.014208895
0000d0 3a ae 48 bd 46 56 01 bd 69 d1 81 3c 5a 56 93 3c
       -0.04899428 -0.031576417 0.015846925 0.017985512
0000e0 5a 45 61 bd 69 be a9 3d 6e 9f 0a bd b3 ba 84 3c
       -0.05499778 0.08288271 -0.03384345 0.016202306
0000f0 8c 8f 8d bc 81 95 8c ba 93 61 93 bd b1 7e 92 3d
       -0.017280363 -0.0010725708 -0.07196345 0.07153071
000100 31 f0 c9 bc 39 b1 fb ba fa 8f ec bd b3 4c 88 bd
       -0.024650665 -0.0019202597 -0.11550899 -0.06655254
000110 bb 7d 7b bd 34 97 04 3d 1b ac 39 bd 72 6b 71 3a
       -0.061399203 0.03237076 -0.04533015 0.0009209431
000120 f8 d1 91 bd 61 7b 29 bd af 97 4f bd 28 a0 b7 bd
       -0.071201265 -0.04137743 -0.050681766 -0.08966094
000130 91 b9 b3 bc 6b 48 04 bd 1d 56 79 3d 8e 7f 83 3c
       -0.02193907 -0.032295626 0.06087314 0.016052034
000140 d4 15 90 3d 0c 77 e2 bd 28 73 80 bd d7 08 4c 3d
       0.070354134 -0.11057863 -0.06271964 0.049813118
000150 be 86 97 bd b5 16 fc bc 19 45 24 3b 0d ab 87 3c
       -0.07398747 -0.030772546 0.00250656 0.016561056
000160 8b c0 6a bb 5a 7e ea bd 95 98 79 bc 1a e5 f8 bc
       -0.003582033 -0.11449881 -0.015234132 -0.030382682
000170 a4 80 af bd 82 7f 66 bd f8 73 f7 bd e1 01 53 bd
       -0.08569458 -0.056273945 -0.12082666 -0.051515464
000180 75 7a 1e 3d 91 ab 28 bd 5b f7 5d bd 32 99 37 bc
       0.038691003 -0.041179243 -0.054190975 -0.011205958
000190 90 f5 9d bd 61 c8 8d bd 4e cb 6e 3d 1e af 16 bd
       -0.07712853 -0.06922985 0.058299355 -0.0367881
0001a0 0f 64 fd bc 3b 0a 94 bd 3b 2b e5 bc 6c a9 41 bd
       -0.0309315 -0.07228514 -0.027974715 -0.047280714
0001b0 a7 a2 c3 bd 95 95 b6 bd bf 2a b9 3c 0a df 8a bb
       -0.09552508 -0.08915249 0.02260339 -0.004238014
0001c0 c0 62 37 bd 7a 4b 9e 3d 35 a0 37 3d 81 86 8a bd
       -0.04477191 0.0772924 0.04483052 -0.06763936
0001d0 f5 23 2b bd 35 c5 87 bd 39 76 c4 3d 38 35 33 3c
       -0.04178234 -0.06629411 0.09592862 0.010937981
0001e0 0e 05 3d 3d ee 26 5d 3d d0 ee b1 3c c1 fb 6a bd
       0.0461474 0.053992204 0.02172032 -0.057368997
0001f0 51 51 b8 3c b3 17 a0 bd 9b 16 3b bd 09 59 65 bd
       0.022499712 -0.0781702 -0.045675855 -0.055993114
000200 cb 28 67 3d 1e 64 42 bb 7b 53 f1 3b f2 dd 72 bd
       0.056435388 -0.0029661725 0.007364688 -0.059293695
000210 3f ac db bd 50 55 09 bd 4e 4d 8a 3d 0a d4 5c bd
       -0.10726213 -0.033528626 0.06753026 -0.053913154
000220 9c eb 80 bd 36 40 a0 bd 31 c3 49 3d 9d 41 4c 3d
       -0.06294939 -0.07824747 0.049258415 0.04986726
000230 73 95 8d bc a0 7f 49 3d a3 29 9b bc 50 23 91 3c
       -0.017283177 0.04919398 -0.018940752 0.017717034
000240 98 7b 46 bc 4b 93 9c 3d 2d 17 00 3d 11 65 92 3d
       -0.012114428 0.076452814 0.031272102 0.07148183
000250 8f a7 0c bd e7 69 28 3d 85 df f5 bc 58 d8 81 3d
       -0.034339484 0.04111662 -0.030013809 0.063400924
000260 fd 7d 01 bd 24 e0 64 3c 50 8e 3c 3d 82 72 8e bd
       -0.031614292 0.013969455 0.046034157 -0.069554344
000270 75 c4 91 3d d7 2e 8e 3c a7 b6 a3 bd 8c 95 f0 bc
       0.07117549 0.01735632 -0.079938225 -0.029368185
000280 c5 cc d6 bb 67 5a 76 3d 7e f1 4c bd 44 2f 86 3d
       -0.006555172 0.06014481 -0.050034992 0.06551984
000290 ee c7 be 3d 47 d2 31 bd 95 5b 89 3d 07 18 8d bd
       0.09315477 -0.043413427 0.06706921 -0.068893485
0002a0 19 fa 24 bd 8a e0 fa bc 9f 98 87 bd a5 d1 49 3d
       -0.040277574 -0.030624647 -0.06620907 0.0492722
0002b0 f8 e7 2d 3c 79 88 65 3d f7 9e 0f 3d 59 f7 e9 bc
       0.010614388 0.056038354 0.03506371 -0.028560327
0002c0 42 63 c6 bd cb 43 a9 bd 16 c8 d8 bd fb ca 77 bc
       -0.09686901 -0.082648836 -0.10585038 -0.015124078
0002d0 2a 11 3f 3d 3e 27 22 3d b1 90 31 3c f9 9f 80 3d
       0.04664723 0.039588206 0.01083772 0.06280512
0002e0 0e b0 00 3c 4b 0d 98 bb 2c 78 8b 3d d2 75 a5 3c
       0.007854475 -0.0046402565 0.0681003 0.020197783
0002f0 1b f1 28 bd 94 27 31 3d 49 2d 1c bc f4 fb 3a bd
       -0.04124556 0.043250635 -0.009532281 -0.045650437
000300 c4 dc a6 bd af 58 33 bd c9 e9 80 bd 68 45 92 3c
       -0.081475765 -0.043785747 -0.06294591 0.017855361
000310 8e c6 a7 bd e5 9c 7d bd 31 94 28 3c 4a d1 32 bd
       -0.08192168 -0.061917204 0.010289238 -0.043656625
000320 41 c6 05 3d 6b 50 b2 3d 24 1b 9b 38 b7 ea c4 bc
       0.032659773 0.08706745 7.396031e-05 -0.024037702
000330 eb 23 d7 3c 61 54 62 bd e1 e7 83 bd 30 97 b9 bc
       0.026262244 -0.05525625 -0.06440712 -0.0226551
000340 f2 af cf 3c 15 e1 54 bd 2a 0a c7 3c cd 85 55 3b
       0.025352452 -0.051972467 0.024296839 0.0032580972
000350 20 e1 f0 bd e6 8c 68 3c 68 54 8e 3c 9b 8b 35 bd
       -0.11761689 0.014193749 0.017374232 -0.04432259
000360 5a 6e 52 3d 82 d8 b6 bd 46 6b 9e 3d e0 b4 13 bd
       0.05137477 -0.08928014 0.077353045 -0.036061168
000370 ef 59 3a bc 73 64 a3 3c cb df 06 3d e3 57 5f 3d
       -0.011373981 0.019945359 0.03292827 0.054527175
000380 7e 7f fa bc c8 f9 23 3d dd dd 5c bb 38 49 16 bd
       -0.030578371 0.04003313 -0.0033701577 -0.03669092
000390 77 d9 40 3d 3d 3b 7a 3d b3 f0 57 bd 14 df 4e bd
       0.04708239 0.06109165 -0.052719783 -0.050505713
0003a0 88 06 0e bd b1 98 cd 3c 9d e1 8d 3c 2f d3 4e 3d
       -0.034674197 0.025097223 0.017319495 0.05049437
0003b0 99 23 b1 bd 9a 71 ec bd df e4 c6 3d 0f 81 a2 bc
       -0.08649368 -0.11545105 0.097116224 -0.01983693
0003c0 ac e2 44 3d fd ad 12 3c 25 25 a2 3d b3 d1 a0 3d
       0.048067734 0.008952615 0.07917241 0.07852497
0003d0 7c ae 9d 3d 92 f4 58 bd d4 b9 ac bd d9 24 d2 3c
       0.07699296 -0.052967615 -0.084338814 0.025652336
0003e0 92 2b 83 3d da 21 07 3d e2 d9 34 bb e1 3e 6e bd
       0.06404795 0.032991268 -0.0027595689 -0.058165435
0003f0 cb 80 4e bd b8 79 03 bd 4d ff 8b bd c4 8d 2a 3d
       -0.050415795 -0.032098502 -0.06835804 0.041639104

lstm.bias_ih_l0 f4 [512]
000000 db a8 60 bd 4e 1a 99 3c 35 fa a2 bd d8 ee 80 bd
       -0.054848533 0.0186893 -0.079578795 -0.06295556
000010 52 38 83 3b 6a ae 71 3c 27 27 5e bd 67 3f 43 ba
       0.0040045166 0.014751056 -0.054236557 -0.00074481074
000020 48 4e 15 bd 60 8f 9a 3c f7 fe 9b bb 1b e3 39 ba
       -0.036451608 0.018867195 -0.004760619 -0.00070910313
000030 ff 76 8d 3c 7e e9 ab bd bf 9d c6 3c 27 77 a7 bc
       0.017268656 -0.083941445 0.024245141 -0.020442558
000040 6d 7d c9 bc 95 7b 68 bd 46 2a 19 bd ff 8c 96 bd
       -0.02459594 -0.056758482 -0.03739383 -0.073511116
000050 76 58 a6 bd 6d 0f 27 bd 00 fd 81 3d 76 8e c7 bc
       -0.08122341 -0.040786196 0.06347084 -0.024359923
000060 ca 88 10 3d ae 5e 45 bd 89 19 f4 3c fa 0b a2 3c
       0.035286702 -0.048185997 0.029797332 0.019781101
000070 55 de 4f bd dc 09 c5 bc 0f 4c cd 3d 2e 8b 14 bd
       -0.05074914 -0.024052553 0.10024273 -0.036265545
000080 54 fb 95 3d 8b 09 28 3d 01 5d 90 3d 54 6c 03 bd
       0.07323328 0.041024726 0.07048989 -0.03208573
000090 b7 12 8f 3d e8 b8 09 bd e9 51 b0 3c 99 8f 43 3c
       0.069859914 -0.033623606 0.021523433 0.011936092
0000a0 3e c8 72 bc 7b 21 f1 3c 6c 99 84 bd 29 b7 75 3d
       -0.014818249 0.02943491 -0.064745754 0.05998913
0000b0 24 3b 76 3c 39 3c 67 bd d6 a3 ef bc 31 e7 47 3d
       0.015028749 -0.056453917 -0.029252928 0.048804466
0000c0 bc 43 b3 bc 78 d7 66 bd 1e 8e aa bd f6 3b 08 3d
       -0.021882884 -0.05635783 -0.08327888 0.03326031
0000d0 39 17 78 bc 32 4a e0 3c 89 55 9b bd 74 21 a8 3b
       -0.015142255 0.02737913 -0.07584674 0.005130941
0000e0 75 f0 a3 3b 4b d1 e1 39 33 57 88 bd f7 cb 57 3d
       0.00500303 0.0004307128 -0.06657257 0.05268475
0000f0 22 7d e0 3c 76 cf f8 3a bf 44 ea bc 98 07 b2 bd
       0.027403418 0.0018982727 -0.028597234 -0.08692855
000100 12 08 60 bd 83 33 13 bc b1 9f 9a 3d ff 19 6a bd
       -0.054695196 -0.008984449 0.0754999 -0.057153698
000110 99 00 8a 3c 59 76 94 3d 58 e3 d4 bd 3c e5 17 3c
       0.016845988 0.072491355 -0.10394925 0.009270962
000120 d8 13 38 bd 42 13 a7 bd 02 c1 7d bc 5a 31 15 3d
       -0.0449408 -0.0815797 -0.015487911 0.03642402
000130 30 8b b0 3d 54 83 21 bd 09 95 b3 bd 94 cd 64 3d
       0.08620298 -0.039431885 -0.087686606 0.055860117
000140 b6 a4 3a 3c a0 65 9e 3d 1b 26 b5 ba f4 37 82 bc
       0.011391809 0.07734227 -0.001382056 -0.015895821
000150 09 9e 76 bd 35 fd 15 3d 6f 68 20 3d 6b c4 b2 ba
       -0.060209308 0.03661843 0.039162096 -0.0013638859
000160 3c e3 2d 3d 95 26 0f 3c 84 bd 13 3a c1 17 62 3c
       0.042453036 0.008737226 0.0005635845 0.013799609
000170 6b b1 67 3d ea 9b 72 bc 19 dc aa bc 16 a7 bb 3d
       0.056565683 -0.014807681 -0.020856904 0.091627285
000180 02 de b1 bd 47 b1 8e ba c1 a5 eb bc e5 6a 04 bd
       -0.08684923 -0.0010886573 -0.028765561 -0.032328505
000190 ca cc 82 3d 83 64 9a 3d 49 3e 66 3c 81 d8 a4 bd
       0.06386717 0.07538702 0.014052936 -0.08049107
0001a0 3a 97 30 bd 63 4f b7 bd 12 29 24 bd 66 25 70 bc
       -0.04311297 -0.08950689 -0.04007823 -0.014657354
0001b0 74 d1 85 bd 42 d8 73 ba a8 40 be ba af a9 5c 3d
       -0.06534091 -0.0009301939 -0.0014515119 0.05387276
0001c0 d3 54 b8 ba d9 75 ab 3c 64 7a d1 bd 40 b5 fd 3c
       -0.0014063366 0.020930218 -0.10228422 0.030970216
0001d0 aa 43 ba bd 7a 3c b6 3d 3d 7e a5 bd ba a4 a7 bd
       -0.09094937 0.08898254 -0.08080719 -0.08185716
0001e0 4f 7d 8e bc 7c a2 9e bd 63 41 d2 3a ae c5 ab 3c
       -0.017393736 -0.07745835 0.0016041215 0.020968284
0001f0 2d 37 e2 bc 61 e6 7c bd bf c9 b5 3d 00 99 cf 3a
       -0.0276142 -0.061743144 0.08876371 0.0015838444
000200 c7 4f 57 bd 90 91 b6 3d 8f b7 d7 bb 0a 5e 84 3c
       -0.052566316 0.089144826 -0.006583161 0.016158123
000210 59 2d b8 3c ae 34 6a bd 1d 16 4e bc 4d 1f 84 bd
       0.022482561 -0.057179146 -0.012578514 -0.06451283
000220 80 25 4a bd 9b 53 8e bd a9 f8 88 3d 47 cc 85 bd
       -0.04935217 -0.0694954 0.06688053 -0.065331034
000230 ab 15 07 bd 02 f3 44 bd 79 5f 3e bd fb 20 32 3b
       -0.03297965 -0.048083313 -0.04647777 0.0027180302
000240 01 7e be bd 13 08 11 3d b1 98 87 bc 5a 18 8f bd
       -0.09301377 0.03540809 -0.016552301 -0.069870666
000250 fe c0 8d bd 66 48 04 bd 7d f2 1a 3d dd 10 ac b9
       -0.06921576 -0.032295607 0.03782891 -0.0003281896
000260 1e fd 38 bc da 3a 4f bc c5 58 f9 3c 54 94 bc bc
       -0.011290817 -0.012648309 0.030437836 -0.023019947
000270 16 d0 91 3c 63 4c 56 3b 5b eb 71 3d 20 7a a4 bd
       0.017799418 0.0032699339 0.059062343 -0.08031106
000280 4b 06 00 3d e8 b4 47 3d 2a 91 82 3d 89 9a 95 bd
       0.031256 0.04875651 0.06375344 -0.07304866
000290 67 d2 c5 3a 2c 9f ad 3d c1 81 8c bd 5a a7 5f 3c
       0.0015092612 0.08477625 -0.06860686 0.01365074
0002a0 8b ca 26 3d 0c 7f a1 bc 23 ef 0a bd 07 1b 90 3d
       0.040720504 -0.019713901 -0.033919465 0.07036405
0002b0 39 00 ab bd 91 30 fd 3c d0 b5 06 3d b5 84 6d bc
       -0.08349652 0.030906947 0.032888234 -0.014496972
0002c0 16 76 78 3d 30 71 4c 3a c6 7c 7d bd 0f d3 32 bd
       0.06065949 0.00077988487 -0.06188657 -0.043658312
0002d0 01 c2 d4 bb f5 13 aa 3c f1 f1 3d 3d fe f4 d1 bc
       -0.0064928536 0.02076147 0.04637331 -0.025629517
0002e0 6f 38 35 bc d0 c5 5e 3c 01 05 ab 3c fb 4b 54 bd
       -0.011060818 0.013596967 0.02087641 -0.051830273
0002f0 41 de 93 3d 66 11 9e 3c 6a 47 24 bc 84 ad 49 bd
       0.07220126 0.019295406 -0.010026792 -0.049237743
000300 c6 c7 da bc 44 1c 5a bd e7 c7 4b 3d 25 33 9d 3d
       -0.026706588 -0.053249612 0.04975119 0.07675771
000310 52 ca ef 3c 12 ec 1b 3a 38 c4 55 3d 55 c8 8a 3d
       0.029271279 0.0005947958 0.052189082 0.067764916
000320 5a 42 ad 3c 49 e3 f9 bc 69 a1 82 3d 1e d9 c8 bd
       0.021149803 -0.030503886 0.06378443 -0.09807037
000330 2b 07 51 bd d4 09 9f 3c 33 9a 83 3d 59 68 0f bd
       -0.051032227 0.019413866 0.064258955 -0.035011623
000340 74 87 5f bd b5 4d dd bb aa 0c fe 39 1b 44 76 3d
       -0.054572538 -0.006753648 0.0004845609 0.060123544
000350 fc 59 49 3c 75 20 e8 bb 70 1d 5f bd d6 8d 36 3c
       0.01228952 -0.0070839473 -0.054471433 0.011142215
000360 17 32 0c bd fc 0a 69 bd ac 1a 7b 3d 27 9e 9a 3d
       -0.034227457 -0.05689524 0.061304733 0.075496964
000370 78 6a 48 bd 1a 48 d4 3a 65 e6 77 3d 1d a1 9d 3d
       -0.04892966 0.0016195804 0.060522456 0.076967455
000380 8d f6 16 3c 09 aa 69 bc f6 43 c3 bd 0a 87 a6 bd
       0.009214056 -0.014261731 -0.09534447 -0.081312254
000390 c9 67 85 3d 79 27 27 3d c6 86 be bd e6 65 12 bc
       0.06513936 0.04080913 -0.0930305 -0.008935427
0003a0 d5 5b 2a 3d 11 7e ba bd 65 74 80 bc b7 6a 72 bd
       0.041591484 -0.091060765 -0.015680501 -0.059183802
0003b0 c6 67 8e bd 1e 7d 5c bd 09 38 70 3b b9 ed 36 3d
       -0.06953387 -0.05383026 0.0036654493 0.044660304
0003c0 6b d7 55 bd f0 d4 67 3d 87 87 c3 bd 57 51 07 bd
       -0.05220739 0.056599557 -0.09547334 -0.033036556
0003d0 dd 3b 00 bd 0d 3b b1 3d fe 37 d0 bc 84 e8 33 3d
       -0.03130709 0.08653841 -0.025417324 0.043922916
0003e0 49 74 7f bd 88 ef 55 3d 47 8a 69 3d 51 d2 c4 3b
       -0.062366758 0.052230388 0.057016637 0.006006517
0003f0 0c 60 87 3d fc e2 98 bd 72 f4 ac 3d 4e e7 0d bd
       0.06610116 -0.07465169 0.08445062 -0.034644417

lstm.bias_hh_l0 f4 [512]
000000 1e ad 97 bd f9 cc 5a bd 42 12 75 bd ee 47 ec bc
       -0.07406066 -0.053418133 -0.059831865 -0.028842892
000010 e9 23 ab 3d 80 63 2d 3d 11 14 7d bd e3 9c 8d bd
       0.08356459 0.04233122 -0.061786715 -0.069146894
000020 86 4f 8e bd 0a 27 82 bd 3d 18 07 3d 16 55 ca 3c
       -0.06948762 -0.06355102 0.0329821 0.024698775
000030 72 ed 7a 3d fb fa 90 bd b5 3b 8f 3d 96 0e 60 bd
       0.0612616 -0.07079121 0.0699381 -0.05470141
000040 2d 8e 14 3c 35 6f 58 3d b1 25 a3 3d c2 3e 2a bd
       0.0090671005 0.05284043 0.079661734 -0.041563757
000050 91 eb 8c bd 13 f8 64 bd 3b 46 f1 3c e3 45 bd bd
       -0.06880868 -0.055900645 0.029452434 -0.092418455
000060 38 f9 1b 3d ac 89 93 3c dc c9 c3 3c 69 b6 4c 3d
       0.03807947 0.018009983 0.023899965 0.049978647
000070 d7 fd fd bc 61 db 85 bd 43 6a 0d 3d fe a3 0d 3d
       -0.03100483 -0.06535984 0.034525167 0.034580223
000080 87 cd 2a bd c5 be 70 3d 8b a5 04 3c fb 3c 9b 3c
       -0.041699912 0.058775682 0.008096109 0.018949976
000090 84 e1 d9 3c 91 03 5e 3d df 38 ac 3d 10 28 af bd
       0.026596792 0.05420262 0.08409285 -0.08552563
0000a0 5b b4 00 3d 74 86 74 3d e4 5b 97 bd b4 a7 00 bd
       0.031422 0.059698537 -0.073905736 -0.031409934
0000b0 6c fa a2 bc e5 09 7c bd fb 6f 92 bd c2 f3 9d bc
       -0.019894801 -0.061532874 -0.07150265 -0.019281272
0000c0 de 24 99 bc 7b 34 e0 bc ef a0 3b bd 49 04 ea 3c
       -0.018694337 -0.027368775 -0.045807775 0.028566496
0000d0 51 d9 07 3d 5c aa b6 bc e7 53 49 3d c0 bd 77 3d
       0.033166233 -0.02229803 0.04915228 0.060483694
0000e0 3d 84 d1 bc a8 93 0b 3d b8 97 cf 3c 1b b4 40 bd
       -0.025575751 0.034076363 0.0253409 -0.047046762
0000f0 20 f5 0a 3d 56 e1 b5 3d 6b 47 8d 3d 3a c9 44 3d
       0.033925176 0.0888087 0.068983875 0.048043467
000100 6b 54 9c bd 7c 4e d9 3b b4 64 e9 bc 65 7d 33 3d
       -0.07633289 0.0066316705 -0.028490402 0.043820757
000110 61 0f 89 bd 2e c2 a9 bc 3a 7e 21 3c 1c 96 1a 3d
       -0.066923864 -0.020722475 0.009856755 0.03774081
000120 1f c8 c1 3d 03 5c a5 bd 8a 84 23 bd d0 fb bf bd
       0.09461998 -0.080741905 -0.03992132 -0.09374201
000130 47 90 3d bd ae 45 32 bd 9e 46 a5 3c 76 2d 4f b9
       -0.04628017 -0.043523483 0.020175274 -0.00019757994
000140 20 2c 49 bd 20 02 89 3d 95 50 8e bd b0 43 91 bb
       -0.049114347 0.066898584 -0.069489636 -0.004433118
000150 db c4 4b 3d 3f 45 62 bd 7f f7 5e 3b a9 50 4d bd
       0.049748283 -0.05524182 0.003402203 -0.05012575
000160 8e 5e 8c 3d 76 3c b0 bc cb 33 36 bd 84 f6 81 bb
       0.068539724 -0.021513205 -0.044482987 -0.0039661545
000170 44 a8 21 38 85 83 40 bd 16 bc 88 3c 94 de 30 3d
       3.85421e-05 -0.047000427 0.016691249 0.043181017
000180 f9 dc 8c bd 98 58 2a 3d a8 09 8c bd 80 26 ce 3c
       -0.06878085 0.041588396 -0.06837779 0.025164843
000190 0e 16 a6 bc 59 e5 4e bd 3d 0e 53 3d 26 b6 15 bd
       -0.020274188 -0.05051169 0.05152725 -0.036550663
0001a0 16 ce 28 bd 29 f0 b0 bd 23 8c 98 bd 36 92 ce bc
       -0.041212164 -0.08639557 -0.07448604 -0.025216203
0001b0 1e 47 9d bd 38 f8 37 bd f1 f7 39 3d d0 a5 84 bd
       -0.0767958 -0.044914454 0.04540247 -0.06476939
0001c0 da b5 94 3d 2a d1 9c bd 40 e1 bb bd 3b 74 99 3d
       0.07261248 -0.076570824 -0.091738224 0.07492872
0001d0 fa 2c be bb d6 91 0e bd d1 aa 47 ba 41 68 69 3c
       -0.0058037015 -0.03480705 -0.0007616701 0.0142460475
0001e0 39 d6 49 3d f6 c1 44 3d b3 8b 01 bc 02 2b 87 3c
       0.049276564 0.048036538 -0.007906842 0.0165
0001f0 ff 89 0d 3d d0 b3 1a bd f1 f6 83 bd 14 3e 4a 3d
       0.03455543 -0.03776914 -0.06443585 0.04937561
000200 5a 19 f2 3b 5a 7d 06 3c 4e 07 93 3c b4 92 5d bd
       0.007388276 0.008208597 0.01794782 -0.054094985
000210 97 b1 d6 bc 99 ed 97 bd 3a 91 6b 3c fd 0a ac bd
       -0.026207728 -0.07418365 0.014377886 -0.08400533
000220 d0 f5 26 bd 06 08 e1 bd db 6f 95 bc 66 b2 1d bc
       -0.04076177 -0.109878585 -0.018241813 -0.009625053
000230 b3 3c c1 3b 86 82 1e 3d 57 66 61 3d 61 f9 3f 3d
       0.0058971285 0.038698696 0.05502924 0.046868686
000240 a1 12 ab bd 21 8d 33 3d d6 6c 20 bc 36 ca 3d 3d
       -0.083531626 0.043835763 -0.0097915735 0.04633542
000250 7c b0 e5 3a 93 16 f6 bc f2 89 7c bd b5 17 d9 bc
       0.001752391 -0.030040061 -0.061654992 -0.026500562
000260 36 6a 08 bd 21 b2 2a 3d 94 39 6c bc fc 2e 8d 3d
       -0.033304416 0.041673783 -0.014418025 0.06893727
000270 38 74 de 3c a1 e5 8a bd 81 74 38 bd df cd 9b bc
       0.027155027 -0.067820795 -0.04503298 -0.019019065
000280 21 bd 97 bd ba 39 4a bb 9d 11 ad bd a6 c6 56 bc
       -0.0740912 -0.0030857162 -0.08450625 -0.013108885
000290 fb ff 65 bd fe bf 64 bd 42 43 44 bd c6 85 1b 3d
       -0.056152325 -0.05584716 -0.047915705 0.037969373
0002a0 1b c1 59 bb 12 84 90 bd 19 2f 51 3c 40 f9 c1 3c
       -0.0033226672 -0.070564404 0.012767577 0.023678422
0002b0 1e 97 db bc b8 61 c9 bc 73 4c d4 bc 9c 1d 1b bd
       -0.026805457 -0.024582729 -0.02591536 -0.037870035
0002c0 07 a6 76 3d 8a c6 b5 39 e7 b7 6b 3d f0 af 29 bd
       0.06021693 0.00034670933 0.05754843 -0.041427553
0002d0 c1 07 0b bc b9 35 8d bd f8 18 93 3c 4d 9d 79 3d
       -0.008485735 -0.068950124 0.017956242 0.06094103
0002e0 82 a5 2b 3d c6 5f 76 bd e4 53 ac bd 0b 7c fc 3c
       0.041905887 -0.06014993 -0.08414438 0.030820867
0002f0 42 35 35 bd fa e0 98 bc 2e d3 61 3c 88 e5 34 3d
       -0.044240244 -0.018661965 0.013783259 0.04416421
000300 1e 1f 0d bd 3f ce 6a bd 9f 9c 83 bd ed 9a 7d bd
       -0.034453504 -0.057325598 -0.064263575 -0.061915327
000310 37 9c 1a bc b7 58 0c bd 65 59 19 bd a9 d9 0d bd
       -0.009436659 -0.034264293 -0.03743877 -0.034631405
000320 e3 49 4a bd 5a d1 a8 bd 9b 3c 8e 3d 05 75 8a 3c
       -0.04938687 -0.08243056 0.06945153 0.016901502
000330 9a ab 10 3c 44 bf 8b 3d ca 70 25 bc 16 8c 60 3d
       0.0088299755 0.068235904 -0.010097692 0.054821096
000340 7d 24 22 bc 92 6b 82 bd 95 3d 67 bd 77 2d 49 3d
       -0.009896395 -0.06368174 -0.056455214 0.049115624
000350 50 96 62 3d bd 06 33 bc c2 7d 37 bd 06 22 62 bd
       0.05531913 -0.0109268995 -0.044797666 -0.05520823
000360 1d 82 60 bd c7 cd c2 bc 13 8a 20 3d 2b 5c 87 3d
       -0.054811586 -0.023779763 0.039194178 0.066093765
000370 08 3b b6 bc 52 01 6e 3d b5 5e 4b bd 42 cb 2e bd
       -0.022244945 0.058106728 -0.049650867 -0.04267431
000380 35 09 a0 bb f7 a3 86 3d fa 1e 5a bd eb fe 5b 3d
       -0.00488391 0.065742426 -0.053252198 0.053709906
000390 eb d0 d9 3c 5e 98 ac bb 26 b8 a3 bd 2c ba a9 bd
       0.026588878 -0.005267187 -0.07994108 -0.082874626
0003a0 e4 95 a1 3c e9 1e e1 3b ae 5f f6 3b 41 79 09 3d
       0.019724794 0.00687014 0.00751873 0.033562902
0003b0 b5 14 47 3d 3a 6c ff 3b 29 70 ee bc 77 cc c7 3b
       0.048603732 0.007794884 -0.029106217 0.006097372
0003c0 f3 33 b5 3d d2 5a a0 3d d0 f2 79 3d 01 53 c8 3d
       0.08847799 0.078298226 0.06102258 0.09781457
0003d0 2d 5e a5 bc a5 f6 8c 3d b1 aa 96 3d 8c eb d1 39
       -0.020186508 0.06882981 0.073567756 0.00040039083
0003e0 ae bd 20 3d bd e3 55 3d d6 75 32 3c 2c 18 fb 3c
       0.039243393 0.05221914 0.010892352 0.030651174
0003f0 fe c2 91 bc 7e d0 a5 bd b8 37 77 3d 12 7a 1b bd
       -0.017793175 -0.08096407 0.060355872 -0.037958212

lstm.weight_ih_l0_reverse f4 [512, 8]
000000 97 95 36 bc f9 4b 8a 3d 4b b5 a3 3d bb cc 49 bd
       -0.011144063 0.06752772 0.07993563 -0.04926751
000010 3b 9b 0e bd 5d f7 74 bd fa 12 f7 3c b7 31 48 bd
       -0.034816008 -0.059806217 0.030160416 -0.048875537
000020 a2 2e 13 bd b2 59 67 bd c1 ff 09 3b 89 6e 77 3d
       -0.035933144 -0.056482024 0.0021056982 0.06040815
000030 94 d3 36 bd f2 88 2c 3d 81 26 ef 3c 67 65 11 bc
       -0.04463537 0.04212279 0.029193165 -0.008874274
000040 22 69 7d 3d cb ca 9e 3d e0 7b 29 3c d0 f5 07 3d
       0.06186784 0.077535234 0.0103444755 0.03319341
000050 73 ea 90 3d 17 e9 a8 bb 40 b5 65 bd 87 3a 16 bd
       0.07075968 -0.0051547396 -0.056081057 -0.03667691
000060 6e 69 66 bd d8 14 51 bd b9 d8 aa 3d 9b 4c b1 3d
       -0.05625289 -0.05104527 0.08342118 0.086571895
000070 78 ac 91 3d 88 19 2d bd 26 3a 79 3d a7 3a e3 bb
       0.07112974 -0.042260677 0.06084647 -0.006934482
000080 6e 32 61 3d 5a dd 68 bd 9c e4 87 bd 92 fd af 3c
       0.054979734 -0.056851722 -0.06635401 0.021483216
000090 53 c9 24 3d 41 33 9f 3d 37 29 c7 bc 97 2d 1a bc
       0.04023106 0.07773448 -0.024311645 -0.0094102835
0000a0 15 ea 5f bd a0 31 3f bb 5d a8 b9 3d 16 c4 6d bb
       -0.054666597 -0.0029173866 0.09065316 -0.0036280206
0000b0 ae 11 8b 3c 9c e1 17 3c 2f 6a 07 bd e1 03 37 bd
       0.016976204 0.009270098 -0.03306025 -0.044681434
0000c0 3c 33 20 bd ad c7 b4 bd 83 91 9c bd e3 ab ad bd
       -0.03911136 -0.08827148 -0.07644942 -0.084800504
0000d0 84 c4 45 bd c3 c2 b0 3d c6 d5 75 3d aa 98 99 3d
       -0.048283115 0.08630898 0.060018323 0.074998215
0000e0 78 df 82 3d 7a e2 0a bd ff 5f 34 3d ce e7 b2 3d
       0.063902795 -0.03390739 0.04403686 0.087356195
0000f0 dd c8 81 3d 39 a5 92 3d a5 27 27 bd d9 2b d0 bc
       0.0633714 0.0716042 -0.040809292 -0.025411533
000100 25 bf 8e 3d c0 12 d2 3b 9b 1c 31 3d e8 48 45 3d
       0.06970052 0.0064109266 0.04324017 0.048165232
000110 7f 46 98 bc 4c 55 98 3c 11 ee 8c bc 2c 71 cf bd
       -0.018588303 0.01859536 -0.017203363 -0.10129008
000120 6e f1 01 3d bf 09 9f 3d 74 71 62 3d fd ab c6 3d
       0.031724386 0.07765531 0.05528398 0.09700773
000130 e4 57 21 3d e3 d4 b3 bd 0c 35 74 3d 1c a0 85 3c
       0.03939046 -0.08780839 0.059620902 0.016311698
000140 a0 51 14 bd fa 81 22 3d 08 79 97 bc 57 70 58 bd
       -0.036210656 0.039674737 -0.01849033 -0.05284151
000150 2c 1a d1 bc 10 1c 79 bd 32 a3 b4 bd 37 0e 21 bb
       -0.025525175 -0.060817778 -0.088201895 -0.0024575123
000160 7b 77 0e bd 34 94 10 3d 63 0d a5 3d f8 0b e3 3d
       -0.034781914 0.035297588 0.08059194 0.11086267
000170 fb 54 15 bd 60 8c b2 3b 93 7a 58 bd 16 72 92 3d
       -0.036457997 0.005448863 -0.05285127 0.071506664
000180 ae 7c 26 bd 5a d6 ad 3d ea 5d e1 3c 64 40 a7 bd
       -0.040646248 0.0848815 0.027510602 -0.081665784
000190 1c 5f 72 bd dd 6c 4d bd d7 12 c6 bd d6 d1 b9 bd
       -0.059172735 -0.05015265 -0.09671562 -0.09073226
0001a0 9e 4a 94 3d 95 11 66 bd b5 00 55 bd 90 f2 f0 bb
       0.072407946 -0.05616911 -0.052002627 -0.0073531345
0001b0 ce 20 1b bc 39 75 ac bc 58 70 11 3a c2 ca 87 3d
       -0.0094682705 -0.02105199 0.00055480516 0.0663047
0001c0 83 a9 1d 3d 30 05 55 3d e4 fb 97 bc 5a 88 b2 bb
       0.038491737 0.0520069 -0.018552728 -0.0054483833
0001d0 32 a9 c0 bb 5c f6 77 3d 48 fd d5 bc 07 7b 2f 3d
       -0.0058795447 0.06053768 -0.02612175 0.042841937
0001e0 e0 06 8e bd f0 e8 b3 bc e2 f5 25 bd b1 d5 8b bd
       -0.06934905 -0.02196166 -0.040517695 -0.06827868
0001f0 fd bc c1 bd 55 30 85 3d e9 ef b1 bd c7 f1 0d 3c
       -0.09459875 0.06503359 -0.08688337 0.008663601
000200 f7 a5 7f bd 6d e0 d0 bc 4f 61 69 bd c9 06 7e bc
       -0.062414136 -0.02549764 -0.056977566 -0.015504547
000210 19 9d 7f bd a5 ee 84 3d af 90 da 3c 91 35 a6 3d
       -0.06240568 0.0649083 0.026680319 0.08115686
000220 19 0b 21 bd 6a 7d 0e b9 f6 7b c8 b9 9d f7 c1 bc
       -0.039317224 -0.00013588896 -0.0003823933 -0.023677642
000230 ae 6c 8d 3d dd 8c 82 3d bf d2 83 3c 54 11 24 3b
       0.06905495 0.06374524 0.016091703 0.0025034742
000240 7a 25 88 bd 80 2e b7 3d ba 33 db bc 20 a7 75 3d
       -0.06647773 0.08944416 -0.026758064 0.059973836
000250 b6 b8 af bd b1 ac 5a 3c 56 6c 0f 3d 2c 30 e4 3c
       -0.08580153 0.013346837 0.035015427 0.027855001
000260 ea 3b b2 bd db 41 89 3d 42 93 8e 3c 16 ee a7 3d
       -0.08702834 0.06702014 0.017404202 0.08199708
000270 2d be 7a 3d ea 18 62 3d 24 b2 2f 3d b4 d9 cf 3d
       0.061216522 0.05519954 0.042894498 0.101489455
000280 82 72 c9 bd 00 1c 81 bd c8 cf 17 3d 27 6a 2a 3d
       -0.09836294 -0.06304169 0.03706339 0.04160514
000290 48 55 e2 bc a1 84 a8 bc e9 49 52 3c 1c d4 02 bd
       -0.027628556 -0.020571055 0.012835004 -0.031940565
0002a0 52 10 2e 3d ed a1 67 3d da d2 c4 bc 2f c8 10 bc
       0.042496033 0.05655091 -0.024026323 -0.00883679
0002b0 83 09 22 3d 5f 20 63 3d 50 6e 8e bd 56 3e 25 bd
       0.039559852 0.055450793 -0.06954634 -0.04034265
0002c0 99 17 21 3d eb 15 77 3d 35 ed c0 3d b6 d0 13 bd
       0.039329145 0.060323637 0.09420244 -0.036087714
0002d0 56 32 16 3c 7a 61 82 bd 31 45 4b 3c 6f 29 56 bc
       0.009167274 -0.063662484 0.012406633 -0.013071402
0002e0 e0 66 21 bd b2 e4 45 3d 22 e0 0e 3d 18 da 9f bd
       -0.03940475 0.048313804 0.03488172 -0.0780527
0002f0 eb b3 e4 bc 0b 67 2e bb 9c 61 12 bd 41 b9 c7 3b
       -0.027917823 -0.0026611711 -0.03573762 0.006095082
000300 92 7a f4 bc d4 1b da 3c 8b ad 8b bd 0d 27 00 bd
       -0.029843602 0.026624598 -0.0682021 -0.03128724
000310 e7 94 87 bd fb 77 b3 bc ad b7 94 3d 47 23 53 3c
       -0.06620198 -0.021907797 0.07261596 0.012886829
000320 03 71 85 3c c7 9c c7 bd 82 25 a4 bd bb bc 65 3d
       0.01628924 -0.097467 -0.080149665 0.05608819
000330 d5 67 56 3c 09 2c 9c bd c4 27 27 3d f3 03 3f 3d
       0.013086279 -0.076255865 0.040809408 0.046634626
000340 3e 78 00 bd 90 88 34 bc c9 37 aa bc 43 2b 99 bc
       -0.031364672 -0.011018887 -0.020778554 -0.018697387
000350 35 2c 4a 3d 37 68 48 3d d7 f3 92 bd 4b 6b db 3c
       0.049358565 0.048927512 -0.07175415 0.02678456
000360 f0 20 c7 bc 08 7a f6 3c 72 d3 b0 3c 17 9a a6 3d
       -0.024307698 0.030087486 0.0215852 0.08134859
000370 28 05 80 3d 20 c9 33 bc b4 4e 91 bd 88 29 7f 3c
       0.062509835 -0.010973245 -0.070950896 0.015573867
000380 4a 9e 11 3a ca 54 76 bd 5c b2 96 bc 1b 6f 97 3d
       0.0005554898 -0.060139455 -0.018395595 0.073942386
000390 a7 ee c2 bb 91 c8 55 bc 7f 21 a5 bd 0f cf d2 bd
       -0.0059488597 -0.013048307 -0.080630295 -0.102933995
0003a0 63 7c a4 bd fa 84 ae bd 06 d7 05 bc 5a 6e 45 bc
       -0.080315374 -0.08521457 -0.008168941 -0.012050236
0003b0 51 60 a0 3d f4 68 2a bd d9 3b 1b bd b9 e3 b0 bc
       0.07830871 -0.041603997 -0.037898872 -0.021592962
0003c0 9c 2f b8 bc b0 74 7a bc 61 cf eb 3c fc b0 3b 3d
       -0.02248364 -0.0152866095 0.02878541 0.045823082
0003d0 b0 a6 ac 3c be a3 9c 3d 5b 89 58 bd 72 3a 15 bd
       0.021075577 0.07648419 -0.052865367 -0.03643269
0003e0 99 7f 9d bd f0 71 80 bc eb 44 0a bc 20 10 50 bd
       -0.07690353 -0.01567933 -0.008439283 -0.050796628
0003f0 e5 b6 b3 bb f9 41 95 3d 18 1c 03 bd ec e9 35 bd
       -0.005484449 0.07287974 -0.032009214 -0.04441254

lstm.weight_hh_l0_reverse f4 [512, 128]
000000 ce 17 3f 3c 75 c8 92 bd f1 48 cd 3c d4 3d 97 bc
       0.01166339 -0.071671404 0.025059195 -0.0184621
000010 47 36 2e bd e3 14 9d 3d 17 89 80 bd e6 f9 65 3c
       -0.04253223 0.076699995 -0.06276148 0.014036631
000020 6b 1a 4e 3b 91 12 8f bd 7c 13 08 bc fd 07 be bd
       0.0031448852 -0.06985963 -0.008305427 -0.092788674
000030 b5 1d 64 bd e1 f9 86 3d 64 b9 d4 ba 71 05 f8 bc
       -0.055692393 0.06590629 -0.0016229567 -0.030276032
000040 9e ae aa bd 7b 68 39 bd 9b 44 39 3d e5 fd 6b 3d
       -0.08334087 -0.045265656 0.045231443 0.05761518
000050 f0 7d 26 bd f4 0c 92 3d 9a 3f eb bc 6c cc b0 3d
       -0.040647447 0.07131377 -0.028716851 0.086327404
000060 6d 93 a9 bd 21 2a 90 bc dd 3d 61 ba b3 7e c9 bc
       -0.08280072 -0.017598214 -0.0008592287 -0.024596548
000070 73 9e 06 3d 3d 3e 3f bd 21 fe 81 bc 7e 77 2a bd
       0.032865953 -0.046690214 -0.015868248 -0.041617863
000080 3d 4f 59 bd 99 82 34 3c a1 9e b5 bd 85 93 80 3c
       -0.053054083 0.011017465 -0.08868147 0.015695343
000090 fa ea 2a bd 21 b3 f4 bc 59 d7 6e 3d 5e ed 0c 3c
       -0.041727997 -0.029870572 0.05831084 0.008601515
0000a0 85 d6 39 bd 48 77 9b bd 0c ea 7a bd 4e 9e f7 bc
       -0.045370597 -0.075911105 -0.06125836 -0.030226853
0000b0 71 37 90 3d 28 86 a3 bd 6a 2b 9e 3c 6f 76 cd 3c
       0.070418246 -0.07984573 0.01930781 0.025080888
0000c0 53 f9 54 bd 5d c2 af bd f2 17 98 bd 48 0d 15 3d
       -0.051995587 -0.08581994 -0.07426442 0.03638962
0000d0 08 1e bb bd 2b 1d 44 3d e1 92 1b 3c 5c 88 58 3d
       -0.091365874 0.04787938 0.009495468 0.052864417
0000e0 32 d9 74 bd 0b 4e 49 bd f4 b3 97 3d d4 7b b4 bd
       -0.059777446 -0.049146693 0.0740737 -0.08812681
0000f0 90 23 85 bd 9f e1 88 bd 85 f5 cb bd 62 52 d6 bc
       -0.06500924 -0.06683659 -0.099589385 -0.02616233
000100 85 9f 97 3d 18 e3 1b bd a6 88 2a bd f0 a4 af bd
       0.07403473 -0.03805837 -0.041634224 -0.08576381
000110 7f 23 b5 bd 01 b4 7c 3d 48 d4 5a 3c 99 78 5e 3d
       -0.08844661 0.061695103 0.013356276 0.05431423
000120 be 66 fb 3b 3f fd 8e 3c 59 4f a2 bd e1 a6 9d bd
       0.00767216 0.017454742 -0.079252906 -0.07697845
000130 b2 95 93 bd 31 ab 8e bd 47 53 34 bd 7d e7 a3 3c
       -0.072062865 -0.06966246 -0.044024732 0.020007843
000140 62 e8 44 bd 40 ee 14 3d ea 37 cf bd 0f 7d cc bc
       -0.04807318 0.036360025 -0.10118087 -0.024961976
000150 ed b0 28 3c 1a 9f 87 bd 60 de 99 bd 51 bf b3 bd
       0.010296089 -0.06622143 -0.07513118 -0.08776725
000160 a4 de f0 bd 38 cc a7 bc 7b 51 8f 3d 66 95 43 3d
       -0.11761215 -0.020483121 0.06997963 0.0477499
000170 66 f6 06 3c 07 74 99 3d b8 b7 fc bc 1c 54 56 3c
       0.008237457 0.074928336 -0.030849323 0.013081577
000180 9e 1e cb bc 83 ad b2 3c a4 96 97 bd 5a dc 2a bd
       -0.024794873 0.021811252 -0.07401779 -0.04171405
000190 74 f1 5c bd 23 5d 81 bc a3 f1 85 bc 62 5c a4 3d
       -0.053941205 -0.015791481 -0.016350573 0.08025433
0001a0 a0 7b 94 bd 54 a6 8e bd 1c 52 ab bd d5 5f 6e 3c
       -0.07250142 -0.06965318 -0.083652705 0.014549215
0001b0 ac 34 13 bb 6b 92 e7 bc 31 b1 88 3d ba 4d 75 3d
       -0.0022461815 -0.02826806 0.066744216 0.05988858
0001c0 62 80 a2 bd bc 39 54 bd 14 70 8c 3d 23 00 98 3d
       -0.07934643 -0.051812872 0.06857315 0.07421901
0001d0 ee 78 20 3c 19 02 55 3d b4 e5 7b 3d 14 53 67 3c
       0.009794457 0.052003954 0.06149836 0.014118928
0001e0 18 94 ad 3d f2 06 9a bd c8 45 ac 3d 47 b2 a8 3d
       0.08475512 -0.07520856 0.08411747 0.08237129
0001f0 8c 8d fa 3c 36 dd 6f 3d d2 9a b1 bd d7 44 a0 3d
       0.030585073 0.058560573 -0.08672108 0.0782563
000200 d9 55 d5 3c b3 40 cf bc 14 8c 7a 3c a9 56 05 bd
       0.026041912 -0.025299406 0.015292186 -0.03255335
000210 58 4c b7 bd 08 b5 99 3d 0a 88 8f bb 48 67 99 bd
       -0.08950108 0.07505232 -0.004380231 -0.074904025
000220 2a 04 90 bd bd ab 90 3d 2a 8f 54 bd 0e 3d 44 3d
       -0.07032044 0.070640065 -0.051894344 0.04790979
000230 13 73 25 3d a7 63 f5 3c 0e c7 65 3d 8c 41 b8 bc
       0.040392946 0.029954745 0.056098036 -0.022492193
000240 b5 9f d9 bc 3c e8 a4 bd 54 63 18 3d 6b d3 20 bd
       -0.026565412 -0.08052108 0.0372041 -0.039264124
000250 f1 43 69 bd f3 e6 29 3c 38 99 6a 3d 0d 23 f7 3c
       -0.05694956 0.010370004 0.057275027 0.03016808
000260 b7 44 07 bb 84 df 84 bd 09 aa cd bc 0a 84 70 bd
       -0.0020640322 -0.06487945 -0.025105493 -0.058719672
000270 29 8f af 3d 34 e5 36 bc 44 69 3b 3d 0a f1 e3 3c
       0.085722275 -0.011163045 0.045754686 0.027824897
000280 3a eb 5c 3d 74 57 a7 3c 9d 70 a6 bd e8 59 78 bd
       0.053935267 0.020427443 -0.08126948 -0.060632616
000290 33 b5 60 3d 13 e4 40 bd 8c 7b a0 3d 98 d4 ed 3c
       0.054860305 -0.04709251 0.07836065 0.029032037
0002a0 36 47 bf 3d db 8c 9a 3d 84 87 c6 3c df 95 1a bd
       0.09339754 0.07546397 0.02423454 -0.037740584
0002b0 60 db b6 3b b2 20 79 3b 88 25 83 bd 9c 77 a6 3d
       0.0055803508 0.0038013873 -0.06403643 0.081282824
0002c0 38 b3 32 bd 3d a2 84 3d b9 59 9c bd d7 51 0e bd
       -0.043627948 0.06476257 -0.07634301 -0.034746017
0002d0 7c f3 82 bc b6 f0 07 bd 88 ee ef 3c 90 53 8b 3c
       -0.015985243 -0.033188544 0.029288545 0.01700762
0002e0 ca 1e 9e bb 19 01 9d 3d f8 cf 72 bd 62 99 15 3d
       -0.0048254477 0.07666225 -0.059280366 0.03652323
0002f0 4c 27 a1 bd 71 cb a7 bd 55 3f c2 bc 7a 51 aa 3d
       -0.078688234 -0.081931 -0.02371184 0.08316322
000300 0a b5 b3 3c af b9 4f bc 40 5d e5 bb 8f 86 ba 3b
       0.021936912 -0.012678548 -0.0069996417 0.00569231
000310 1a b4 4d 3d ab 1c 05 3d 5d 80 88 bd ad 48 18 bd
       0.050220586 0.032498043 -0.06665108 -0.037178684
000320 6f 64 97 bd 2d 02 04 3c 50 b9 c5 bd 99 74 73 3d
       -0.07392203 0.008057159 -0.09654486 0.059437368
000330 8c cd 29 bd 5c 61 8c bd 1f 17 72 3d 7f 20 41 3d
       -0.04145579 -0.06854507 0.05910408 0.04715013
000340 34 b4 27 bb 49 73 6c bd dc e0 94 3c 2b a7 85 3d
       -0.0025589587 -0.057727132 0.018173628 0.065260254
000350 d2 37 43 bd 75 63 3e bd 07 f8 0b bd a0 ce 26 3c
       -0.047660656 -0.04648157 -0.034172084 0.010181099
000360 f5 c1 9f 3d 5d cd 88 bd bf d4 52 bd 9e 29 57 3d
       0.07800666 -0.06679795 -0.05147242 0.052529924
000370 0f b5 17 bb 24 2b 53 bd 18 ed e0 bc ed 28 82 3d
       -0.002314869 -0.051554814 -0.027456805 0.06355462
000380 6c fc 69 bd c3 b8 93 bd d1 dd 31 bd 02 86 6f 3d
       -0.057125494 -0.07212975 -0.04342443 0.05847741
000390 51 c2 d0 3c bc 99 c2 bc a8 f2 d8 3c 88 d7 1f bd
       0.025483282 -0.023754947 0.026482895 -0.039023906
0003a0 08 01 ea bc 79 46 a8 3c 97 d9 5b 3d a1 8b 8c 3d
       -0.028564945 0.020541416 0.053674307 0.068625696
0003b0 a2 0c c6 3c b0 1e a1 bd 60 26 26 3d cb 19 b8 3d
       0.024175946 -0.07867181 0.04056394 0.089892946
0003c0 01 ee 93 bc 0a e1 9d bd 14 d7 65 3c 06 dc 30 bd
       -0.018057825 -0.077089384 0.014028329 -0.04317858
0003d0 47 ab 88 bd 35 b8 b5 3c 4d 5f 51 3d 72 b0 92 3c
       -0.066732936 0.022182563 0.051116277 0.017906401
0003e0 d7 44 2e bd 97 91 36 bd ce de 35 3d 6e ad 85 3d
       -0.04254612 -0.04457244 0.044401936 0.0652722
0003f0 55 3e 0c 3d 75 4f ac bb 52 39 93 3c a3 9e 93 3d
       0.034239132 -0.0052584955 0.017971668 0.07207992

lstm.bias_ih_l0_reverse f4 [512]
000000 36 8c 4a bd 54 e5 f2 3c 1d 9d 8b 3d 4f 60 d8 bc
       -0.04945012 0.029650368 0.06817076 -0.026413111
000010 b7 17 bd 3c 04 10 a5 3c d5 b9 9a bd a6 d1 34 3d
       0.023082597 0.020149238 -0.07554976 0.04414525
000020 74 99 2d 3d 81 41 86 bd 8a e2 f3 3c 4a 5e 0b bc
       0.042382672 -0.06555463 0.029771108 -0.008506367
000030 35 bf 62 3d fd 2b 49 3d c4 5c 68 bd eb 2e a6 3d
       0.05535813 0.049114216 -0.056729093 0.08114418
000040 be 9a 46 bb 09 db aa 3c d9 a1 ea 3d 71 f3 93 bd
       -0.0030304636 0.020856397 0.11456651 -0.07224167
000050 b7 de 48 3d b8 43 73 3d 29 d7 a4 3c 4c 3d a9 3d
       0.049040522 0.059390754 0.020122128 0.082636446
000060 6f 82 c9 3d 35 7d dc bb fc 32 8a 3d 47 be 23 3d
       0.09839331 -0.006728793 0.06748006 0.039976384
000070 ff cf 84 bc 67 57 bd 3c d1 8a 25 bb 1b 23 a8 3d
       -0.016212462 0.023112966 -0.0025259743 0.08209821
000080 f8 4d 7c ba 0c bd 9e 3b d3 91 4c bd 3a 3a cd bd
       -0.00096246554 0.0048443135 -0.049943756 -0.100208715
000090 f3 09 6a bd da 12 59 3d d0 9c 50 bd c7 d3 9d 3d
       -0.057138395 0.052996494 -0.050930798 0.07706409
0000a0 6a f0 04 3d 59 28 a7 bd ec c5 51 bd e8 c4 00 bd
       0.03245584 -0.081619926 -0.051214144 -0.031437784
0000b0 02 8b 91 bd 87 59 a0 bd 4e be 3b 3b 64 6c 59 bd
       -0.07106592 -0.07829576 0.0028647366 -0.053081885
0000c0 66 6b 97 bd ab aa 65 bd 5e f7 f8 3b 46 45 b0 bd
       -0.073935315 -0.056070965 0.007597848 -0.08606963
0000d0 7d ff 13 bd 0d 5d 3e 3d 77 16 82 bc dd d8 76 3c
       -0.036132324 0.04647546 -0.015879853 0.015066353
0000e0 d3 d4 27 3d 24 ab 8d 3c ed 19 8d 3d e0 33 d8 bc
       0.04097445 0.01729352 0.068897106 -0.026391923
0000f0 2a 39 80 3d 35 66 e3 3d 07 88 dd bd 65 fe 5d 3c
       0.06260903 0.11103479 -0.10816961 0.013549422
000100 f1 01 95 bd f2 ff c4 3d 98 cd 84 3d fa 96 c6 bc
       -0.07275761 0.0961913 0.064845264 -0.024241913
000110 dc f0 a6 3d 92 c8 b9 bb ee 85 36 bc 88 e6 f5 bc
       0.08151409 -0.005669662 -0.01114033 -0.030017152
000120 98 b6 6d 3d 3b 9f 18 bd 44 9c 6f bd 6e 53 be bc
       0.058035463 -0.03726123 -0.058498636 -0.023233142
000130 b6 c4 56 3d be 8d 55 3d 3f f4 81 bd d0 d8 26 3d
       0.052433692 0.05213713 -0.06345414 0.040734112
000140 71 94 88 bd c9 e6 19 bd e3 5c cb bc df ec 07 bc
       -0.06668938 -0.03757361 -0.024824565 -0.008296221
000150 3a c5 13 3a 67 1b 9e bd 57 7b b2 3d ee ef bb 3d
       0.0005636994 -0.0772007 0.087149315 0.09176622
000160 03 61 93 3d 84 f7 7b 3b 35 a2 8a bd a9 39 77 b8
       0.07196238 0.0038447091 -0.0676922 -5.894309e-05
000170 90 f2 8a bd 54 b0 89 bd 71 bd fd bb 26 e1 8a 3c
       -0.067845464 -0.06723085 -0.0077435304 0.016953062
000180 71 8e 16 3d 33 56 a4 bd 71 1a 34 bd 76 ad 67 3c
       0.036756936 -0.08024254 -0.04397053 0.014140477
000190 69 d4 4a 3d 3b d2 87 bd 5b 0b 10 3d f0 9d d1 3d
       0.049518976 -0.06631895 0.03516708 0.10235202
0001a0 02 9d c3 3d 2f e3 9e bd 86 d1 0c bd 8a bf 8d bd
       0.09551431 -0.077581756 -0.034379505 -0.06921299
0001b0 6c 40 74 3c 1e 5e fe 3c b8 4f d4 3d e7 06 23 bd
       0.0149079375 0.031050738 0.10366768 -0.039801504
0001c0 cf 46 91 3d 58 79 99 bd fc 2c 3a 3d 13 15 50 3b
       0.07093584 -0.074938476 0.045453057 0.0031750842
0001d0 36 66 4b bd 80 7a 7b 3b f2 81 97 bd 6f 66 25 3c
       -0.049658023 0.0038372576 -0.07397832 0.010095223
0001e0 cb 42 7e 3d 5d 34 b3 3d 57 67 a8 3c 06 92 fa bb
       0.062075417 0.08750222 0.020557089 -0.007646802
0001f0 8f 62 63 3a c7 8e 86 3c 8f af 9a 3d eb 11 86 3d
       0.0008674049 0.016425503 0.075530164 0.06546386
000200 f4 52 b9 3d ff c1 34 bc 07 a1 bf bb c2 75 b7 3c
       0.09049025 -0.01103258 -0.0058480534 0.022395018
000210 0a 73 49 3d e4 1c 1a bd 19 98 68 bc ef ec 55 3d
       0.049181975 -0.03762521 -0.014196419 0.05222791
000220 63 5e db 3a 5a fa 9b bd ab 5e 98 bd bb 3a e7 3c
       0.0016736503 -0.0761611 -0.074399315 0.028226247
000230 0b ba 14 bd 90 4e 35 bb 70 69 6a 3d 06 2f 50 3d
       -0.036310237 -0.0027665235 0.05722946 0.050826095
000240 5a 03 a0 3d 51 05 9c 3b b6 fa 08 3d 2f 57 48 bc
       0.07813139 0.004761376 0.03344222 -0.012227817
000250 95 4b 70 bd a6 b6 07 bb 4e 0f b0 bc 1b 90 8a 3d
       -0.05866583 -0.0020708232 -0.021491673 0.06765767
000260 06 e1 ee bc e8 c5 18 bd e3 50 80 3c 25 92 29 3b
       -0.029160034 -0.037298113 0.01566357 0.0025874462
000270 59 a1 96 bd e2 b4 65 3d 2a f7 41 3c e9 a7 9f bd
       -0.073549934 0.056080706 0.011838714 -0.07795698
000280 06 53 89 3d 81 c3 cc bd a4 92 86 3c 5a 41 4c bc
       0.067052886 -0.09998227 0.016427346 -0.012466753
000290 3c 82 82 3d 18 5d 9e bd 5d 66 83 bc 04 8d 0d bc
       0.063724965 -0.077326 -0.016040022 -0.008639578
0002a0 33 2f b6 3d ab 22 94 3c 7e f1 a1 bd 8b 31 a6 bc
       0.08895721 0.018082937 -0.07907389 -0.020287296
0002b0 08 fe 93 bd 43 68 0f 3d 21 c0 c8 3c f1 e5 89 3c
       -0.07226187 0.03501154 0.024505677 0.016833277
0002c0 3a dc d1 bd 8a 02 70 3d 2c 63 b3 bc 74 76 24 bd
       -0.10247083 0.05859617 -0.021897875 -0.04015203
0002d0 5c a1 ec 3c c3 73 f9 bc 1a 4d 18 3d 25 a0 7c bc
       0.028885536 -0.030450707 0.037182905 -0.015419041
0002e0 ea f1 3c 3d 6e dd 1a 3c 05 2b 40 3d 02 7d 06 3d
       0.046129145 0.009452207 0.046916027 0.03283406
0002f0 cc 44 8f bd 37 e2 2d 3d ee 4b 59 3d 49 75 c9 bc
       -0.06995544 0.042452063 0.053050928 -0.024592059
000300 a1 90 65 bd 40 92 9b 3d aa bf 45 3d f4 a8 85 bd
       -0.056046132 0.07596254 0.04827849 -0.06526366
000310 e4 b3 8f bc e6 f2 a0 3d 39 10 9b bc 9c 3a ae ba
       -0.017541833 0.07858829 -0.018928634 -0.0013292613
000320 2c f9 dd 3d 2f 52 a9 3c 9e 2a f5 bc 85 e3 98 bc
       0.108385414 0.020669071 -0.029927548 -0.018663177
000330 94 0c e9 3b 29 94 4b bd 21 6a 0b 3d 22 60 8e bc
       0.007112095 -0.049701843 0.03403676 -0.017379824
000340 61 01 9c 3d d3 d2 a7 3d 02 ab 85 bd c6 f2 05 bc
       0.076174505 0.081945084 -0.06526758 -0.0081755575
000350 6a b7 0b bd 56 ef 26 3d 8b 3b 97 3d 67 1b 9f bd
       -0.034110464 0.040755592 0.07384404 -0.077688985
000360 5c 81 b5 3d e2 92 9b 3b 2d 25 01 3d 45 a3 46 3c
       0.08862564 0.0047477344 0.031529594 0.012123887
000370 21 64 ac bd 20 c1 3e 3d 31 6f af 3d 32 02 71 bd
       -0.084175356 0.046570897 0.0856613 -0.058839984
000380 f0 55 c3 3c 77 12 94 bd 4b 4f f3 3c a1 43 7d bc
       0.02384469 -0.072300844 0.029700896 -0.0154580185
000390 fa 99 b8 3c 74 2e 73 bd c1 09 93 3d 9e 33 d5 3c
       0.02253436 -0.059370473 0.07179595 0.02602559
0003a0 c8 b3 8c bc ed 5b b0 3d 81 94 a7 3d 33 88 2e 3d
       -0.01717557 0.086112835 0.08182622 0.04261036
0003b0 5e 84 ee bc 28 de 6d 3d fd 97 cf 3d 4e 64 4d bd
       -0.029115852 0.058073193 0.10136411 -0.050144486
0003c0 cd c3 71 3d d9 bf 4c 3c c7 44 2e bd 9a df e4 3a
       0.05902462 0.012496912 -0.04254606 0.0017461658
0003d0 09 5b 82 bd 46 09 7a 3d 44 0d 19 3d 8f 99 a7 3c
       -0.0636502 0.061044 0.037366167 0.020458965
0003e0 7e aa ec 3c 8b 95 77 3d 13 fd 08 3d c1 68 6a 3d
       0.02888989 0.06044535 0.033444475 0.057228807
0003f0 a3 ca 8b bb 81 16 79 3c 2d 51 64 bc 32 8c a5 3d
       -0.0042660995 0.015203119 -0.013935369 0.08083381
